…
140179883404080:sum_blob91 was added to blobs
140179883403840:sum_blob92 was added to blobs
140179883403440:sum_blob93 was added to blobs
140179883403200:sum_blob94 was added to blobs
140179883402640:sum_blob95 was added to blobs
140179883402400:sum_blob96 was added to blobs
140179883402000:sum_blob97 was added to blobs
140179883401760:sum_blob98 was added to blobs
140179883377664:sum_blob99 was added to blobs
140179883404800:sum_blob100 was added to blobs
 0.299 global sparsity
Starting Transform, This will take a while
140179955308000:blob1 was added to blobs
torch ops name: {Model(
  (model): Sequential(
    (0): Conv(
      (conv): Conv2d(3, 16, kernel_size=(3, 3), stride=(2, 2), padding=(1, 1))
      (act): ReLU(inplace=True)
    )
    (1): Conv(
      (conv): Conv2d(16, 32, kernel_size=(3, 3), stride=(2, 2), padding=(1, 1))
      (act): ReLU(inplace=True)
    )
    (2): Conv(
      (conv): Conv2d(32, 16, kernel_size=(1, 1), stride=(1, 1))
      (act): ReLU(inplace=True)
    )
    (3): Conv(
      (conv): Conv2d(32, 16, kernel_size=(1, 1), stride=(1, 1))
      (act): ReLU(inplace=True)
    )
    (4): Conv(
      (conv): Conv2d(16, 16, kernel_size=(3, 3), stride=(1, 1), padding=(1, 1))
      (act): ReLU(inplace=True)
    )
    (5): Conv(
      (conv): Conv2d(16, 16, kernel_size=(3, 3), stride=(1, 1), padding=(1, 1))
      (act): ReLU(inplace=True)
    )
    (6): Concat()
    (7): Conv(
      (conv): Conv2d(64, 32, kernel_size=(1, 1), stride=(1, 1))
      (act): ReLU(inplace=True)
    )
    (8): MP(
      (m): MaxPool2d(kernel_size=2, stride=2, padding=0, dilation=1, ceil_mode=False)
    )
    (9): Conv(
      (conv): Conv2d(32, 32, kernel_size=(1, 1), stride=(1, 1))
      (act): ReLU(inplace=True)
    )
    (10): Conv(
      (conv): Conv2d(32, 32, kernel_size=(1, 1), stride=(1, 1))
      (act): ReLU(inplace=True)
    )
    (11): Conv(
      (conv): Conv2d(32, 32, kernel_size=(3, 3), stride=(1, 1), padding=(1, 1))
      (act): ReLU(inplace=True)
    )
    (12): Conv(
      (conv): Conv2d(32, 32, kernel_size=(3, 3), stride=(1, 1), padding=(1, 1))
      (act): ReLU(inplace=True)
    )
    (13): Concat()
    (14): Conv(
      (conv): Conv2d(128, 64, kernel_size=(1, 1), stride=(1, 1))
      (act): ReLU(inplace=True)
    )
    (15): MP(
      (m): MaxPool2d(kernel_size=2, stride=2, padding=0, dilation=1, ceil_mode=False)
    )
    (16): Conv(
      (conv): Conv2d(64, 64, kernel_size=(1, 1), stride=(1, 1))
      (act): ReLU(inplace=True)
    )
    (17): Conv(
      (conv): Conv2d(64, 64, kernel_size=(1, 1), stride=(1, 1))
      (act): ReLU(inplace=True)
    )
    (18): Conv(
      (conv): Conv2d(64, 64, kernel_size=(3, 3), stride=(1, 1), padding=(1, 1))
      (act): ReLU(inplace=True)
    )
    (19): Conv(
      (conv): Conv2d(64, 64, kernel_size=(3, 3), stride=(1, 1), padding=(1, 1))
      (act): ReLU(inplace=True)
    )
    (20): Concat()
    (21): Conv(
      (conv): Conv2d(256, 128, kernel_size=(1, 1), stride=(1, 1))
      (act): ReLU(inplace=True)
    )
    (22): MP(
      (m): MaxPool2d(kernel_size=2, stride=2, padding=0, dilation=1, ceil_mode=False)
    )
    (23): Conv(
      (conv): Conv2d(128, 128, kernel_size=(1, 1), stride=(1, 1))
      (act): ReLU(inplace=True)
    )
    (24): Conv(
      (conv): Conv2d(128, 128, kernel_size=(1, 1), stride=(1, 1))
      (act): ReLU(inplace=True)
    )
    (25): Conv(
      (conv): Conv2d(128, 128, kernel_size=(3, 3), stride=(1, 1), padding=(1, 1))
      (act): ReLU(inplace=True)
    )
    (26): Conv(
      (conv): Conv2d(128, 128, kernel_size=(3, 3), stride=(1, 1), padding=(1, 1))
      (act): ReLU(inplace=True)
    )
    (27): Concat()
    (28): Conv(
      (conv): Conv2d(512, 256, kernel_size=(1, 1), stride=(1, 1))
      (act): ReLU(inplace=True)
    )
    (29): Conv(
      (conv): Conv2d(256, 128, kernel_size=(1, 1), stride=(1, 1))
      (act): ReLU(inplace=True)
    )
    (30): Conv(
      (conv): Conv2d(256, 128, kernel_size=(1, 1), stride=(1, 1))
      (act): ReLU(inplace=True)
    )
    (31): SP(
      (m): Sequential(
        (0): MaxPool2d(kernel_size=3, stride=1, padding=1, dilation=1, ceil_mode=False)
        (1): MaxPool2d(kernel_size=3, stride=1, padding=1, dilation=1, ceil_mode=False)
      )
    )
    (32): SP(
      (m): Sequential(
        (0): MaxPool2d(kernel_size=3, stride=1, padding=1, dilation=1, ceil_mode=False)
…
      (m): Sequential(
        (0): MaxPool2d(kernel_size=3, stride=1, padding=1, dilation=1, ceil_mode=False)
        (1): MaxPool2d(kernel_size=3, stride=1, padding=1, dilation=1, ceil_mode=False)
        (2): MaxPool2d(kernel_size=3, stride=1, padding=1, dilation=1, ceil_mode=False)
        (3): MaxPool2d(kernel_size=3, stride=1, padding=1, dilation=1, ceil_mode=False)
        (4): MaxPool2d(kernel_size=3, stride=1, padding=1, dilation=1, ceil_mode=False)
        (5): MaxPool2d(kernel_size=3, stride=1, padding=1, dilation=1, ceil_mode=False)
      )
    )
    (34): Concat()
    (35): Conv(
      (conv): Conv2d(512, 128, kernel_size=(1, 1), stride=(1, 1))
      (act): ReLU(inplace=True)
    )
    (36): Concat()
    (37): Conv(
      (conv): Conv2d(256, 128, kernel_size=(1, 1), stride=(1, 1))
      (act): ReLU(inplace=True)
    )
    (38): Conv(
      (conv): Conv2d(128, 64, kernel_size=(1, 1), stride=(1, 1))
      (act): ReLU(inplace=True)
    )
    (39): DeConv(
      (conv): ConvTranspose2d(64, 64, kernel_size=(2, 2), stride=(2, 2), groups=64)
      (act): ReLU(inplace=True)
    )
    (40): Conv(
      (conv): Conv2d(128, 64, kernel_size=(1, 1), stride=(1, 1))
      (act): ReLU(inplace=True)
    )
    (41): Concat()
    (42): Conv(
      (conv): Conv2d(128, 32, kernel_size=(1, 1), stride=(1, 1))
      (act): ReLU(inplace=True)
    )
    (43): Conv(
      (conv): Conv2d(128, 32, kernel_size=(1, 1), stride=(1, 1))
      (act): ReLU(inplace=True)
    )
    (44): Conv(
      (conv): Conv2d(32, 32, kernel_size=(3, 3), stride=(1, 1), padding=(1, 1))
      (act): ReLU(inplace=True)
    )
    (45): Conv(
      (conv): Conv2d(32, 32, kernel_size=(3, 3), stride=(1, 1), padding=(1, 1))
      (act): ReLU(inplace=True)
    )
    (46): Concat()
    (47): Conv(
      (conv): Conv2d(128, 64, kernel_size=(1, 1), stride=(1, 1))
      (act): ReLU(inplace=True)
    )
    (48): Conv(
      (conv): Conv2d(64, 32, kernel_size=(1, 1), stride=(1, 1))
      (act): ReLU(inplace=True)
    )
    (49): DeConv(
      (conv): ConvTranspose2d(32, 32, kernel_size=(2, 2), stride=(2, 2), groups=32)
      (act): ReLU(inplace=True)
    )
    (50): Conv(
      (conv): Conv2d(64, 32, kernel_size=(1, 1), stride=(1, 1))
      (act): ReLU(inplace=True)
    )
    (51): Concat()
    (52): Conv(
      (conv): Conv2d(64, 16, kernel_size=(1, 1), stride=(1, 1))
      (act): ReLU(inplace=True)
    )
    (53): Conv(
      (conv): Conv2d(64, 16, kernel_size=(1, 1), stride=(1, 1))
      (act): ReLU(inplace=True)
    )
    (54): Conv(
      (conv): Conv2d(16, 16, kernel_size=(3, 3), stride=(1, 1), padding=(1, 1))
      (act): ReLU(inplace=True)
    )
    (55): Conv(
      (conv): Conv2d(16, 16, kernel_size=(3, 3), stride=(1, 1), padding=(1, 1))
      (act): ReLU(inplace=True)
    )
    (56): Concat()
    (57): Conv(
      (conv): Conv2d(64, 32, kernel_size=(1, 1), stride=(1, 1))
      (act): ReLU(inplace=True)
    )
    (58): Conv(
      (conv): Conv2d(32, 64, kernel_size=(3, 3), stride=(2, 2), padding=(1, 1))
      (act): ReLU(inplace=True)
    )
    (59): Concat()
    (60): Conv(
      (conv): Conv2d(128, 32, kernel_size=(1, 1), stride=(1, 1))
      (act): ReLU(inplace=True)
    )
    (61): Conv(
      (conv): Conv2d(128, 32, kernel_size=(1, 1), stride=(1, 1))
      (act): ReLU(inplace=True)
    )
    (62): Conv(
      (conv): Conv2d(32, 32, kernel_size=(3, 3), stride=(1, 1), padding=(1, 1))
      (act): ReLU(inplace=True)
    )
    (63): Conv(
      (conv): Conv2d(32, 32, kernel_size=(3, 3), stride=(1, 1), padding=(1, 1))
      (act): ReLU(inplace=True)
    )
    (64): Concat()
    (65): Conv(
      (conv): Conv2d(128, 64, kernel_size=(1, 1), stride=(1, 1))
      (act): ReLU(inplace=True)
    )
    (66): Conv(
      (conv): Conv2d(64, 128, kernel_size=(3, 3), stride=(1, 1), padding=(1, 1))
      (act): ReLU(inplace=True)
    )
    (67): DetectSlot(
      (m): Conv2d(128, 20, kernel_size=(1, 1), stride=(1, 1))
    )
  )
): '', Sequential(
  (0): Conv(
    (conv): Conv2d(3, 16, kernel_size=(3, 3), stride=(2, 2), padding=(1, 1))
    (act): ReLU(inplace=True)
  )
  (1): Conv(
    (conv): Conv2d(16, 32, kernel_size=(3, 3), stride=(2, 2), padding=(1, 1))
    (act): ReLU(inplace=True)
  )
  (2): Conv(
    (conv): Conv2d(32, 16, kernel_size=(1, 1), stride=(1, 1))
    (act): ReLU(inplace=True)
  )
  (3): Conv(
    (conv): Conv2d(32, 16, kernel_size=(1, 1), stride=(1, 1))
    (act): ReLU(inplace=True)
  )
  (4): Conv(
    (conv): Conv2d(16, 16, kernel_size=(3, 3), stride=(1, 1), padding=(1, 1))
    (act): ReLU(inplace=True)
  )
  (5): Conv(
    (conv): Conv2d(16, 16, kernel_size=(3, 3), stride=(1, 1), padding=(1, 1))
    (act): ReLU(inplace=True)
  )
  (6): Concat()
  (7): Conv(
    (conv): Conv2d(64, 32, kernel_size=(1, 1), stride=(1, 1))
    (act): ReLU(inplace=True)
  )
  (8): MP(
    (m): MaxPool2d(kernel_size=2, stride=2, padding=0, dilation=1, ceil_mode=False)
  )
  (9): Conv(
    (conv): Conv2d(32, 32, kernel_size=(1, 1), stride=(1, 1))
    (act): ReLU(inplace=True)
  )
  (10): Conv(
    (conv): Conv2d(32, 32, kernel_size=(1, 1), stride=(1, 1))
    (act): ReLU(inplace=True)
  )
  (11): Conv(
    (conv): Conv2d(32, 32, kernel_size=(3, 3), stride=(1, 1), padding=(1, 1))
    (act): ReLU(inplace=True)
  )
  (12): Conv(
    (conv): Conv2d(32, 32, kernel_size=(3, 3), stride=(1, 1), padding=(1, 1))
    (act): ReLU(inplace=True)
  )
  (13): Concat()
  (14): Conv(
    (conv): Conv2d(128, 64, kernel_size=(1, 1), stride=(1, 1))
    (act): ReLU(inplace=True)
  )
  (15): MP(
    (m): MaxPool2d(kernel_size=2, stride=2, padding=0, dilation=1, ceil_mode=False)
  )
  (16): Conv(
    (conv): Conv2d(64, 64, kernel_size=(1, 1), stride=(1, 1))
    (act): ReLU(inplace=True)
  )
  (17): Conv(
    (conv): Conv2d(64, 64, kernel_size=(1, 1), stride=(1, 1))
    (act): ReLU(inplace=True)
  )
  (18): Conv(
    (conv): Conv2d(64, 64, kernel_size=(3, 3), stride=(1, 1), padding=(1, 1))
    (act): ReLU(inplace=True)
  )
  (19): Conv(
    (conv): Conv2d(64, 64, kernel_size=(3, 3), stride=(1, 1), padding=(1, 1))
    (act): ReLU(inplace=True)
  )
  (20): Concat()
  (21): Conv(
    (conv): Conv2d(256, 128, kernel_size=(1, 1), stride=(1, 1))
    (act): ReLU(inplace=True)
  )
  (22): MP(
    (m): MaxPool2d(kernel_size=2, stride=2, padding=0, dilation=1, ceil_mode=False)
  )
  (23): Conv(
    (conv): Conv2d(128, 128, kernel_size=(1, 1), stride=(1, 1))
    (act): ReLU(inplace=True)
  )
  (24): Conv(
    (conv): Conv2d(128, 128, kernel_size=(1, 1), stride=(1, 1))
    (act): ReLU(inplace=True)
  )
  (25): Conv(
    (conv): Conv2d(128, 128, kernel_size=(3, 3), stride=(1, 1), padding=(1, 1))
    (act): ReLU(inplace=True)
  )
  (26): Conv(
    (conv): Conv2d(128, 128, kernel_size=(3, 3), stride=(1, 1), padding=(1, 1))
    (act): ReLU(inplace=True)
  )
  (27): Concat()
  (28): Conv(
    (conv): Conv2d(512, 256, kernel_size=(1, 1), stride=(1, 1))
    (act): ReLU(inplace=True)
  )
  (29): Conv(
    (conv): Conv2d(256, 128, kernel_size=(1, 1), stride=(1, 1))
    (act): ReLU(inplace=True)
  )
  (30): Conv(
    (conv): Conv2d(256, 128, kernel_size=(1, 1), stride=(1, 1))
    (act): ReLU(inplace=True)
  )
  (31): SP(
    (m): Sequential(
      (0): MaxPool2d(kernel_size=3, stride=1, padding=1, dilation=1, ceil_mode=False)
      (1): MaxPool2d(kernel_size=3, stride=1, padding=1, dilation=1, ceil_mode=False)
    )
  )
  (32): SP(
    (m): Sequential(
      (0): MaxPool2d(kernel_size=3, stride=1, padding=1, dilation=1, ceil_mode=False)
…
  (0): MaxPool2d(kernel_size=3, stride=1, padding=1, dilation=1, ceil_mode=False)
  (1): MaxPool2d(kernel_size=3, stride=1, padding=1, dilation=1, ceil_mode=False)
  (2): MaxPool2d(kernel_size=3, stride=1, padding=1, dilation=1, ceil_mode=False)
  (3): MaxPool2d(kernel_size=3, stride=1, padding=1, dilation=1, ceil_mode=False)
  (4): MaxPool2d(kernel_size=3, stride=1, padding=1, dilation=1, ceil_mode=False)
  (5): MaxPool2d(kernel_size=3, stride=1, padding=1, dilation=1, ceil_mode=False)
): 'model.33.m', MaxPool2d(kernel_size=3, stride=1, padding=1, dilation=1, ceil_mode=False): 'model.33.m.0', Concat(): 'model.34', Conv(
  (conv): Conv2d(512, 128, kernel_size=(1, 1), stride=(1, 1))
  (act): ReLU(inplace=True)
): 'model.35', Conv2d(512, 128, kernel_size=(1, 1), stride=(1, 1)): 'model.35.conv', ReLU(inplace=True): 'model.35.act', Concat(): 'model.36', Conv(
  (conv): Conv2d(256, 128, kernel_size=(1, 1), stride=(1, 1))
  (act): ReLU(inplace=True)
): 'model.37', Conv2d(256, 128, kernel_size=(1, 1), stride=(1, 1)): 'model.37.conv', ReLU(inplace=True): 'model.37.act', Conv(
  (conv): Conv2d(128, 64, kernel_size=(1, 1), stride=(1, 1))
  (act): ReLU(inplace=True)
): 'model.38', Conv2d(128, 64, kernel_size=(1, 1), stride=(1, 1)): 'model.38.conv', ReLU(inplace=True): 'model.38.act', DeConv(
  (conv): ConvTranspose2d(64, 64, kernel_size=(2, 2), stride=(2, 2), groups=64)
  (act): ReLU(inplace=True)
): 'model.39', ConvTranspose2d(64, 64, kernel_size=(2, 2), stride=(2, 2), groups=64): 'model.39.conv', ReLU(inplace=True): 'model.39.act', Conv(
  (conv): Conv2d(128, 64, kernel_size=(1, 1), stride=(1, 1))
  (act): ReLU(inplace=True)
): 'model.40', Conv2d(128, 64, kernel_size=(1, 1), stride=(1, 1)): 'model.40.conv', ReLU(inplace=True): 'model.40.act', Concat(): 'model.41', Conv(
  (conv): Conv2d(128, 32, kernel_size=(1, 1), stride=(1, 1))
  (act): ReLU(inplace=True)
): 'model.42', Conv2d(128, 32, kernel_size=(1, 1), stride=(1, 1)): 'model.42.conv', ReLU(inplace=True): 'model.42.act', Conv(
  (conv): Conv2d(128, 32, kernel_size=(1, 1), stride=(1, 1))
  (act): ReLU(inplace=True)
): 'model.43', Conv2d(128, 32, kernel_size=(1, 1), stride=(1, 1)): 'model.43.conv', ReLU(inplace=True): 'model.43.act', Conv(
  (conv): Conv2d(32, 32, kernel_size=(3, 3), stride=(1, 1), padding=(1, 1))
  (act): ReLU(inplace=True)
): 'model.44', Conv2d(32, 32, kernel_size=(3, 3), stride=(1, 1), padding=(1, 1)): 'model.44.conv', ReLU(inplace=True): 'model.44.act', Conv(
  (conv): Conv2d(32, 32, kernel_size=(3, 3), stride=(1, 1), padding=(1, 1))
  (act): ReLU(inplace=True)
): 'model.45', Conv2d(32, 32, kernel_size=(3, 3), stride=(1, 1), padding=(1, 1)): 'model.45.conv', ReLU(inplace=True): 'model.45.act', Concat(): 'model.46', Conv(
  (conv): Conv2d(128, 64, kernel_size=(1, 1), stride=(1, 1))
  (act): ReLU(inplace=True)
): 'model.47', Conv2d(128, 64, kernel_size=(1, 1), stride=(1, 1)): 'model.47.conv', ReLU(inplace=True): 'model.47.act', Conv(
  (conv): Conv2d(64, 32, kernel_size=(1, 1), stride=(1, 1))
  (act): ReLU(inplace=True)
): 'model.48', Conv2d(64, 32, kernel_size=(1, 1), stride=(1, 1)): 'model.48.conv', ReLU(inplace=True): 'model.48.act', DeConv(
  (conv): ConvTranspose2d(32, 32, kernel_size=(2, 2), stride=(2, 2), groups=32)
  (act): ReLU(inplace=True)
): 'model.49', ConvTranspose2d(32, 32, kernel_size=(2, 2), stride=(2, 2), groups=32): 'model.49.conv', ReLU(inplace=True): 'model.49.act', Conv(
  (conv): Conv2d(64, 32, kernel_size=(1, 1), stride=(1, 1))
  (act): ReLU(inplace=True)
): 'model.50', Conv2d(64, 32, kernel_size=(1, 1), stride=(1, 1)): 'model.50.conv', ReLU(inplace=True): 'model.50.act', Concat(): 'model.51', Conv(
  (conv): Conv2d(64, 16, kernel_size=(1, 1), stride=(1, 1))
  (act): ReLU(inplace=True)
): 'model.52', Conv2d(64, 16, kernel_size=(1, 1), stride=(1, 1)): 'model.52.conv', ReLU(inplace=True): 'model.52.act', Conv(
  (conv): Conv2d(64, 16, kernel_size=(1, 1), stride=(1, 1))
  (act): ReLU(inplace=True)
): 'model.53', Conv2d(64, 16, kernel_size=(1, 1), stride=(1, 1)): 'model.53.conv', ReLU(inplace=True): 'model.53.act', Conv(
  (conv): Conv2d(16, 16, kernel_size=(3, 3), stride=(1, 1), padding=(1, 1))
  (act): ReLU(inplace=True)
): 'model.54', Conv2d(16, 16, kernel_size=(3, 3), stride=(1, 1), padding=(1, 1)): 'model.54.conv', ReLU(inplace=True): 'model.54.act', Conv(
  (conv): Conv2d(16, 16, kernel_size=(3, 3), stride=(1, 1), padding=(1, 1))
  (act): ReLU(inplace=True)
): 'model.55', Conv2d(16, 16, kernel_size=(3, 3), stride=(1, 1), padding=(1, 1)): 'model.55.conv', ReLU(inplace=True): 'model.55.act', Concat(): 'model.56', Conv(
  (conv): Conv2d(64, 32, kernel_size=(1, 1), stride=(1, 1))
  (act): ReLU(inplace=True)
): 'model.57', Conv2d(64, 32, kernel_size=(1, 1), stride=(1, 1)): 'model.57.conv', ReLU(inplace=True): 'model.57.act', Conv(
  (conv): Conv2d(32, 64, kernel_size=(3, 3), stride=(2, 2), padding=(1, 1))
  (act): ReLU(inplace=True)
): 'model.58', Conv2d(32, 64, kernel_size=(3, 3), stride=(2, 2), padding=(1, 1)): 'model.58.conv', ReLU(inplace=True): 'model.58.act', Concat(): 'model.59', Conv(
  (conv): Conv2d(128, 32, kernel_size=(1, 1), stride=(1, 1))
  (act): ReLU(inplace=True)
): 'model.60', Conv2d(128, 32, kernel_size=(1, 1), stride=(1, 1)): 'model.60.conv', ReLU(inplace=True): 'model.60.act', Conv(
  (conv): Conv2d(128, 32, kernel_size=(1, 1), stride=(1, 1))
  (act): ReLU(inplace=True)
): 'model.61', Conv2d(128, 32, kernel_size=(1, 1), stride=(1, 1)): 'model.61.conv', ReLU(inplace=True): 'model.61.act', Conv(
  (conv): Conv2d(32, 32, kernel_size=(3, 3), stride=(1, 1), padding=(1, 1))
  (act): ReLU(inplace=True)
): 'model.62', Conv2d(32, 32, kernel_size=(3, 3), stride=(1, 1), padding=(1, 1)): 'model.62.conv', ReLU(inplace=True): 'model.62.act', Conv(
  (conv): Conv2d(32, 32, kernel_size=(3, 3), stride=(1, 1), padding=(1, 1))
  (act): ReLU(inplace=True)
): 'model.63', Conv2d(32, 32, kernel_size=(3, 3), stride=(1, 1), padding=(1, 1)): 'model.63.conv', ReLU(inplace=True): 'model.63.act', Concat(): 'model.64', Conv(
  (conv): Conv2d(128, 64, kernel_size=(1, 1), stride=(1, 1))
  (act): ReLU(inplace=True)
): 'model.65', Conv2d(128, 64, kernel_size=(1, 1), stride=(1, 1)): 'model.65.conv', ReLU(inplace=True): 'model.65.act', Conv(
  (conv): Conv2d(64, 128, kernel_size=(3, 3), stride=(1, 1), padding=(1, 1))
  (act): ReLU(inplace=True)
): 'model.66', Conv2d(64, 128, kernel_size=(3, 3), stride=(1, 1), padding=(1, 1)): 'model.66.conv', ReLU(inplace=True): 'model.66.act', DetectSlot(
  (m): Conv2d(128, 20, kernel_size=(1, 1), stride=(1, 1))
): 'model.67', Conv2d(128, 20, kernel_size=(1, 1), stride=(1, 1)): 'model.67.m'}
model.0.conv
conv:  blob1
conv1 was added to layers
140179883377104:conv_blob1 was added to blobs
['conv_blob1'] ['blob1']
model.0.act
relu1 was added to layers
140179883377024:relu_blob1 was added to blobs
['relu_blob1'] ['conv_blob1']
model.1.conv
conv:  relu_blob1
conv2 was added to layers
…
